…
DEBUG:fsspec.local:open file: /root/.cache/huggingface/datasets/derek-thomas___science_qa/default/0.0.0/f18b0a70359ebfb41f658fd564208d0355b013f4/dataset_info.json
DEBUG:filelock:Attempting to release lock 139075670417792 on /root/.cache/huggingface/datasets/derek-thomas___science_qa/default/0.0.0/f18b0a70359ebfb41f658fd564208d0355b013f4_builder.lock
DEBUG:filelock:Lock 139075670417792 released on /root/.cache/huggingface/datasets/derek-thomas___science_qa/default/0.0.0/f18b0a70359ebfb41f658fd564208d0355b013f4_builder.lock
INFO:__main__:Qwen2VLForConditionalGeneration(
  (model): Qwen2VLModel(
    (visual): Qwen2VisionTransformerPretrainedModel(
      (patch_embed): PatchEmbed(
        (proj): Conv3d(3, 1280, kernel_size=(2, 14, 14), stride=(2, 14, 14), bias=False)
      )
      (rotary_pos_emb): VisionRotaryEmbedding()
      (blocks): ModuleList(
        (0-31): 32 x Qwen2VLVisionBlock(
          (norm1): LayerNorm((1280,), eps=1e-06, elementwise_affine=True)
          (norm2): LayerNorm((1280,), eps=1e-06, elementwise_affine=True)
          (attn): VisionAttention(
            (qkv): Linear(in_features=1280, out_features=3840, bias=True)
            (proj): Linear(in_features=1280, out_features=1280, bias=True)
          )
          (mlp): VisionMlp(
            (fc1): Linear(in_features=1280, out_features=5120, bias=True)
            (act): QuickGELUActivation()
            (fc2): Linear(in_features=5120, out_features=1280, bias=True)
          )
        )
      )
      (merger): PatchMerger(
        (ln_q): LayerNorm((1280,), eps=1e-06, elementwise_affine=True)
        (mlp): Sequential(
          (0): Linear(in_features=5120, out_features=5120, bias=True)
          (1): GELU(approximate='none')
          (2): Linear(in_features=5120, out_features=3584, bias=True)
        )
      )
    )
    (language_model): Qwen2VLTextModel(
      (embed_tokens): Embedding(152064, 3584)
      (layers): ModuleList(
        (0-27): 28 x Qwen2VLDecoderLayer(
          (self_attn): Qwen2VLAttention(
            (q_proj): Linear(in_features=3584, out_features=3584, bias=True)
            (k_proj): Linear(in_features=3584, out_features=512, bias=True)
            (v_proj): Linear(in_features=3584, out_features=512, bias=True)
            (o_proj): Linear(in_features=3584, out_features=3584, bias=False)
            (rotary_emb): Qwen2VLRotaryEmbedding()
          )
          (mlp): Qwen2MLP(
            (gate_proj): Linear(in_features=3584, out_features=18944, bias=False)
            (up_proj): Linear(in_features=3584, out_features=18944, bias=False)
            (down_proj): Linear(in_features=18944, out_features=3584, bias=False)
            (act_fn): SiLUActivation()
          )
          (input_layernorm): Qwen2RMSNorm((3584,), eps=1e-06)
          (post_attention_layernorm): Qwen2RMSNorm((3584,), eps=1e-06)
        )
      )
      (norm): Qwen2RMSNorm((3584,), eps=1e-06)
      (rotary_emb): Qwen2VLRotaryEmbedding()
    )
  )
  (lm_head): Linear(in_features=3584, out_features=152064, bias=False)
)
INFO:__main__:样本 1: 问题: Think about the magnetic force between the magnets in each pair. Which of the following statements is true?, 正确答案: B, 模型输出: ```json
{
    "answer": "B, 预测: B
INFO:__main__:样本 2: 问题: What is the capital of Oregon?, 正确答案: A, 模型输出: ```json
{
    "answer": "A, 预测: A
INFO:__main__:样本 3: 问题: Which continent is highlighted?, 正确答案: C, 模型输出: ```json
…
